{
  "transform_params" : {
    "input_1" : {
      "bias_a" : 0,
      "bias_g" : -1,
      "bias_r" : -1,
      "bias_b" : -1,
      "center_mean" : 0,
      "is_network_bgr" : 0,
      "scale" : 0.0078431377187371254
    }
  },
  "properties" : {

  },
  "storage" : "model.espresso.weights",
  "format_version" : 200,
  "layers" : [
    {
      "pad_r" : 0,
      "fused_relu" : 1,
      "fused_tanh" : 0,
      "pad_fill_mode" : 0,
      "pad_b" : 0,
      "pad_l" : 0,
      "top" : "block1_0_relu_output",
      "blob_weights" : 3,
      "K" : 3,
      "blob_biases" : 1,
      "stride_x" : 2,
      "name" : "block1_0_conv",
      "has_batch_norm" : 0,
      "type" : "convolution",
      "n_groups" : 1,
      "pad_t" : 0,
      "stride_y" : 2,
      "has_biases" : 1,
      "C" : 64,
      "bottom" : "input_1",
      "weights" : {

      },
      "Nx" : 7,
      "pad_mode" : 1,
      "pad_value" : 0,
      "Ny" : 7,
      "n_parallel" : 1
    },
    {
      "pad_r" : 0,
      "fused_relu" : 1,
      "fused_tanh" : 0,
      "pad_fill_mode" : 0,
      "pad_b" : 0,
      "pad_l" : 0,
      "top" : "block1_1_relu_output",
      "blob_weights" : 7,
      "K" : 64,
      "blob_biases" : 5,
      "name" : "block1_1_conv",
      "has_batch_norm" : 0,
      "type" : "convolution",
      "n_groups" : 1,
      "pad_t" : 0,
      "has_biases" : 1,
      "C" : 64,
      "bottom" : "block1_0_relu_output",
      "weights" : {

      },
      "pad_mode" : 1,
      "Nx" : 3,
      "pad_value" : 0,
      "Ny" : 3,
      "n_parallel" : 1
    },
    {
      "pad_r" : 0,
      "fused_relu" : 1,
      "fused_tanh" : 0,
      "pad_fill_mode" : 0,
      "pad_b" : 0,
      "pad_l" : 0,
      "top" : "block2_0_relu_output",
      "blob_weights" : 11,
      "K" : 64,
      "blob_biases" : 9,
      "name" : "block2_0_conv",
      "has_batch_norm" : 0,
      "type" : "convolution",
      "n_groups" : 1,
      "pad_t" : 0,
      "has_biases" : 1,
      "C" : 96,
      "bottom" : "block1_1_relu_output",
      "weights" : {

      },
      "pad_mode" : 1,
      "Nx" : 3,
      "pad_value" : 0,
      "Ny" : 3,
      "n_parallel" : 1
    },
    {
      "pad_r" : 0,
      "fused_relu" : 0,
      "fused_tanh" : 0,
      "pad_fill_mode" : 0,
      "pad_b" : 0,
      "pad_l" : 0,
      "top" : "block2_1_bn_output",
      "blob_weights" : 15,
      "K" : 96,
      "blob_biases" : 13,
      "name" : "block2_1_conv",
      "has_batch_norm" : 0,
      "type" : "convolution",
      "n_groups" : 1,
      "pad_t" : 0,
      "has_biases" : 1,
      "C" : 96,
      "bottom" : "block2_0_relu_output",
      "weights" : {

      },
      "pad_mode" : 1,
      "Nx" : 3,
      "pad_value" : 0,
      "Ny" : 3,
      "n_parallel" : 1
    },
    {
      "pad_value" : 0,
      "average_count_exclude_padding" : 1,
      "top_shape_style" : 0,
      "avg_or_max" : 1,
      "stride_x" : 2,
      "pad_mode" : 2,
      "stride_y" : 2,
      "pad_t" : 0,
      "weights" : {

      },
      "size_y" : 2,
      "type" : "pool",
      "pad_r" : 0,
      "pad_b" : 0,
      "size_x" : 2,
      "pad_fill_mode" : 0,
      "bottom" : "block2_1_bn_output",
      "pad_l" : 0,
      "name" : "max_pooling2d_1",
      "top" : "max_pooling2d_1_output"
    },
    {
      "mode" : 0,
      "weights" : {

      },
      "top" : "block2_1_relu_output",
      "type" : "activation",
      "name" : "block2_1_relu",
      "bottom" : "max_pooling2d_1_output"
    },
    {
      "pad_r" : 0,
      "fused_relu" : 1,
      "fused_tanh" : 0,
      "pad_fill_mode" : 0,
      "pad_b" : 0,
      "pad_l" : 0,
      "top" : "block2_2_relu_output",
      "blob_weights" : 19,
      "K" : 96,
      "blob_biases" : 17,
      "name" : "block2_2_conv",
      "has_batch_norm" : 0,
      "type" : "convolution",
      "n_groups" : 1,
      "pad_t" : 0,
      "has_biases" : 1,
      "C" : 96,
      "bottom" : "block2_1_relu_output",
      "weights" : {

      },
      "pad_mode" : 1,
      "Nx" : 3,
      "pad_value" : 0,
      "Ny" : 3,
      "n_parallel" : 1
    },
    {
      "pad_r" : 0,
      "fused_relu" : 1,
      "fused_tanh" : 0,
      "pad_fill_mode" : 0,
      "pad_b" : 0,
      "pad_l" : 0,
      "top" : "block3_0_relu_output",
      "blob_weights" : 23,
      "K" : 96,
      "blob_biases" : 21,
      "name" : "block3_0_conv",
      "has_batch_norm" : 0,
      "type" : "convolution",
      "n_groups" : 1,
      "pad_t" : 0,
      "has_biases" : 1,
      "C" : 128,
      "bottom" : "block2_2_relu_output",
      "weights" : {

      },
      "pad_mode" : 1,
      "Nx" : 3,
      "pad_value" : 0,
      "Ny" : 3,
      "n_parallel" : 1
    },
    {
      "pad_r" : 0,
      "fused_relu" : 0,
      "fused_tanh" : 0,
      "pad_fill_mode" : 0,
      "pad_b" : 0,
      "pad_l" : 0,
      "top" : "block4_0_conv_output",
      "blob_weights" : 25,
      "K" : 128,
      "name" : "block4_0_conv",
      "has_batch_norm" : 0,
      "type" : "convolution",
      "n_groups" : 1,
      "pad_t" : 0,
      "has_biases" : 0,
      "C" : 128,
      "bottom" : "block3_0_relu_output",
      "weights" : {

      },
      "pad_mode" : 1,
      "Nx" : 3,
      "pad_value" : 0,
      "Ny" : 3,
      "n_parallel" : 1
    },
    {
      "pad_value" : 0,
      "average_count_exclude_padding" : 1,
      "top_shape_style" : 0,
      "avg_or_max" : 1,
      "stride_x" : 2,
      "pad_mode" : 2,
      "stride_y" : 2,
      "pad_t" : 0,
      "weights" : {

      },
      "size_y" : 2,
      "type" : "pool",
      "pad_r" : 0,
      "pad_b" : 0,
      "size_x" : 2,
      "pad_fill_mode" : 0,
      "bottom" : "block4_0_conv_output",
      "pad_l" : 0,
      "name" : "max_pooling2d_2",
      "top" : "max_pooling2d_2_output"
    },
    {
      "name" : "block4_0_bn",
      "bottom" : "max_pooling2d_2_output",
      "weights" : {

      },
      "top" : "block4_0_bn_output",
      "C" : 128,
      "blob_batchnorm_params" : 27,
      "type" : "batchnorm"
    },
    {
      "mode" : 0,
      "weights" : {

      },
      "top" : "block4_0_relu_output",
      "type" : "activation",
      "name" : "block4_0_relu",
      "bottom" : "block4_0_bn_output"
    },
    {
      "pad_r" : 0,
      "fused_relu" : 1,
      "fused_tanh" : 0,
      "pad_fill_mode" : 0,
      "pad_b" : 0,
      "pad_l" : 0,
      "top" : "block4_1_relu_output",
      "blob_weights" : 31,
      "K" : 128,
      "blob_biases" : 29,
      "name" : "block4_1_conv",
      "has_batch_norm" : 0,
      "type" : "convolution",
      "n_groups" : 1,
      "pad_t" : 0,
      "has_biases" : 1,
      "C" : 160,
      "bottom" : "block4_0_relu_output",
      "weights" : {

      },
      "pad_mode" : 1,
      "Nx" : 3,
      "pad_value" : 0,
      "Ny" : 3,
      "n_parallel" : 1
    },
    {
      "pad_r" : 0,
      "fused_relu" : 0,
      "fused_tanh" : 0,
      "pad_fill_mode" : 0,
      "pad_b" : 0,
      "pad_l" : 0,
      "top" : "block4_2_bn_output",
      "blob_weights" : 35,
      "K" : 160,
      "blob_biases" : 33,
      "name" : "block4_2_conv",
      "has_batch_norm" : 0,
      "type" : "convolution",
      "n_groups" : 1,
      "pad_t" : 0,
      "has_biases" : 1,
      "C" : 160,
      "bottom" : "block4_1_relu_output",
      "weights" : {

      },
      "pad_mode" : 1,
      "Nx" : 3,
      "pad_value" : 0,
      "Ny" : 3,
      "n_parallel" : 1
    },
    {
      "pad_value" : 0,
      "average_count_exclude_padding" : 1,
      "top_shape_style" : 0,
      "avg_or_max" : 1,
      "stride_x" : 2,
      "pad_mode" : 2,
      "stride_y" : 2,
      "pad_t" : 0,
      "weights" : {

      },
      "size_y" : 2,
      "type" : "pool",
      "pad_r" : 0,
      "pad_b" : 0,
      "size_x" : 2,
      "pad_fill_mode" : 0,
      "bottom" : "block4_2_bn_output",
      "pad_l" : 0,
      "name" : "max_pooling2d_3",
      "top" : "max_pooling2d_3_output"
    },
    {
      "mode" : 0,
      "weights" : {

      },
      "top" : "block4_2_relu_output",
      "type" : "activation",
      "name" : "block4_2_relu",
      "bottom" : "max_pooling2d_3_output"
    },
    {
      "pad_r" : 0,
      "fused_relu" : 1,
      "fused_tanh" : 0,
      "pad_fill_mode" : 0,
      "pad_b" : 0,
      "pad_l" : 0,
      "top" : "block5_0_conv__activation___output",
      "blob_weights" : 39,
      "K" : 160,
      "blob_biases" : 37,
      "name" : "block5_0_conv",
      "has_batch_norm" : 0,
      "type" : "convolution",
      "n_groups" : 1,
      "pad_t" : 0,
      "has_biases" : 1,
      "C" : 256,
      "bottom" : "block4_2_relu_output",
      "weights" : {

      },
      "pad_mode" : 1,
      "Nx" : 3,
      "pad_value" : 0,
      "Ny" : 3,
      "n_parallel" : 1
    },
    {
      "pad_r" : 0,
      "fused_relu" : 1,
      "fused_tanh" : 0,
      "pad_fill_mode" : 0,
      "pad_b" : 0,
      "pad_l" : 0,
      "top" : "cccp5__activation___output",
      "blob_weights" : 43,
      "K" : 256,
      "blob_biases" : 41,
      "name" : "cccp5",
      "has_batch_norm" : 0,
      "type" : "convolution",
      "n_groups" : 1,
      "pad_t" : 0,
      "has_biases" : 1,
      "C" : 512,
      "bottom" : "block5_0_conv__activation___output",
      "weights" : {

      },
      "pad_mode" : 1,
      "Nx" : 3,
      "pad_value" : 0,
      "Ny" : 3,
      "n_parallel" : 1
    },
    {
      "pad_value" : 0,
      "average_count_exclude_padding" : 1,
      "top_shape_style" : 0,
      "avg_or_max" : 1,
      "stride_x" : 2,
      "pad_mode" : 2,
      "stride_y" : 2,
      "pad_t" : 0,
      "weights" : {

      },
      "size_y" : 2,
      "type" : "pool",
      "pad_r" : 0,
      "pad_b" : 0,
      "size_x" : 2,
      "pad_fill_mode" : 0,
      "bottom" : "cccp5__activation___output",
      "pad_l" : 0,
      "name" : "poolcp5",
      "top" : "poolcp5_output"
    },
    {
      "pad_r" : 0,
      "fused_relu" : 1,
      "fused_tanh" : 0,
      "pad_fill_mode" : 0,
      "pad_b" : 0,
      "pad_l" : 0,
      "top" : "cccp6__activation___output",
      "blob_weights" : 47,
      "K" : 512,
      "blob_biases" : 45,
      "stride_x" : 2,
      "name" : "cccp6",
      "has_batch_norm" : 0,
      "type" : "convolution",
      "n_groups" : 1,
      "pad_t" : 0,
      "stride_y" : 2,
      "has_biases" : 1,
      "C" : 512,
      "bottom" : "poolcp5_output",
      "weights" : {

      },
      "Nx" : 3,
      "pad_mode" : 1,
      "pad_value" : 0,
      "Ny" : 3,
      "n_parallel" : 1
    },
    {
      "pad_r" : 0,
      "pad_fill_mode" : 0,
      "pad_b" : 0,
      "pad_l" : 0,
      "top" : "global_average_pooling2d_1_output",
      "size_x" : 2,
      "is_global" : 1,
      "top_shape_style" : 0,
      "stride_x" : 1,
      "avg_or_max" : 0,
      "average_count_exclude_padding" : 1,
      "type" : "pool",
      "name" : "global_average_pooling2d_1",
      "pad_t" : 0,
      "stride_y" : 1,
      "bottom" : "cccp6__activation___output",
      "weights" : {

      },
      "pad_mode" : 2,
      "size_y" : 2,
      "pad_value" : 0
    },
    {
      "nB" : 512,
      "top" : "dense_1_output",
      "has_biases" : 1,
      "weights" : {

      },
      "nC" : 62,
      "blob_weights" : 51,
      "type" : "inner_product",
      "has_relu" : 0,
      "bottom" : "global_average_pooling2d_1_output",
      "blob_biases" : 49,
      "has_tanh" : 0,
      "name" : "dense_1",
      "has_prelu" : 0
    },
    {
      "C" : 2,
      "weights" : {

      },
      "top" : "activation_1",
      "type" : "softmax",
      "name" : "activation_1",
      "bottom" : "dense_1_output"
    }
  ]
}